(virtual) D:\Workspace\COMP6721---Face-Mask-Classification>python app.py
----------------------------------------------------------------
        Layer (type)               Output Shape         Param # 
================================================================
            Conv2d-1         [-1, 32, 128, 128]             896 
       BatchNorm2d-2         [-1, 32, 128, 128]              64 
         LeakyReLU-3         [-1, 32, 128, 128]               0 
            Conv2d-4         [-1, 32, 128, 128]           9,248 
       BatchNorm2d-5         [-1, 32, 128, 128]              64 
         LeakyReLU-6         [-1, 32, 128, 128]               0 
         MaxPool2d-7           [-1, 32, 64, 64]               0 
            Conv2d-8           [-1, 64, 64, 64]          18,496 
       BatchNorm2d-9           [-1, 64, 64, 64]             128 
        LeakyReLU-10           [-1, 64, 64, 64]               0 
           Conv2d-11           [-1, 64, 64, 64]          36,928 
      BatchNorm2d-12           [-1, 64, 64, 64]             128 
        LeakyReLU-13           [-1, 64, 64, 64]               0 
        MaxPool2d-14           [-1, 64, 32, 32]               0 
          Dropout-15                [-1, 65536]               0 
           Linear-16                 [-1, 1000]      65,537,000 
             ReLU-17                 [-1, 1000]               0 
           Linear-18                  [-1, 512]         512,512 
             ReLU-19                  [-1, 512]               0 
          Dropout-20                  [-1, 512]               0 
           Linear-21                    [-1, 4]           2,052 
             ReLU-22                    [-1, 4]               0 
================================================================
Total params: 66,117,516
Trainable params: 66,117,516
Non-trainable params: 0
----------------------------------------------------------------
Input size (MB): 0.19
Forward/backward pass size (MB): 38.03
Params size (MB): 252.22
Estimated Total Size (MB): 290.43
----------------------------------------------------------------
None
Epoch 1: Correct Prediction: 881/1823 and accuracy: 0.4832693362589139 and loss: 0.039483868480709575
…
